polygon_segmentation_with_gcn/runs/2024-06-06_08-42-18/states/states.pth (torch, 924706 bytes, 98 tensors)

encoder.module_0.lin_rel.weight f4 [128, 9]
0	0xbe3c2417	-0.18373142
1	0x3e0930e2	0.13397554
2	0x3de98104	0.11401561
3	0x3e73c639	0.23806085
4	0xbc70dc18	-0.014700912
5	0x3dcd1fa1	0.10015798
6	0x3e93b4ff	0.28849027
7	0x3db1915c	0.08670303
8	0xbe8ee801	-0.2791138
9	0xbead6b67	-0.33871004
10	0xbd62e442	-0.055393465
11	0xbb4f4e0c	-0.0031632213
12	0x3ea63552	0.32462555
13	0x3ebd91b1	0.37025216
14	0x3e8eebab	0.27914175
15	0x3d4120b4	0.04715033
16	0xbe8f079a	-0.27935487
17	0x3e6f6209	0.23377241
18	0x3d84fb77	0.064932756
19	0xbe0387bb	-0.12844746
20	0xbdf46f67	-0.11935311
21	0xbe8ae425	-0.27127185
22	0xbcecaff2	-0.028892491
23	0xbe1f15ad	-0.15535612
24	0x3deb8f82	0.11501981
25	0xbd868713	-0.06568732
26	0x3e83a6b9	0.25713137
27	0x3dce902f	0.100860946
28	0x3cf9464f	0.030429034
29	0x3d88835b	0.06665679
30	0xbe8ea1ba	-0.27857763
31	0xbe7f8759	-0.24953975
32	0x3dfd6e1f	0.123745196
33	0x3e15ae90	0.14617372
34	0xbe934497	-0.28763267
35	0x3e11992c	0.14218587
36	0x3e361535	0.17781527
37	0xbe7035ea	-0.23458067
38	0xbde4b260	-0.11166835
39	0x3e0d296a	0.1378533
40	0xbe84472a	-0.25835544
41	0xbe611784	-0.21981627
42	0x3e78afca	0.24285808
43	0xbe37fca6	-0.17967471
44	0x3e586e46	0.21135816
45	0x3b98a22a	0.0046580033
46	0xbe5af266	-0.2138153
47	0xbd8600f3	-0.0654315
48	0xbd7f6f7a	-0.06236217
49	0x3dd0ee9b	0.102017604
50	0x3d396dd3	0.045270752
51	0x3da3ab3e	0.07991646
52	0x3ca36d1b	0.019949486
53	0x3e96e731	0.2947326
54	0xbe8a54f8	-0.2701795
55	0xbea25061	-0.3170195
56	0xbdaa9f36	-0.08331148
57	0xbe8e65a2	-0.27811915
58	0x3d74738e	0.059680514
59	0x3e306196	0.17224726
60	0xbe504336	-0.20338139
61	0xbd6a50f0	-0.057206094
62	0x3e71cdb4	0.23613626
63	0x3eab1a38	0.3341844
64	0x3e9009a5	0.28132358
65	0x3e995594	0.29948103
66	0x3de4f50e	0.11179553
67	0x3d2a7420	0.04161465
68	0xbd8cb0e6	-0.06869678
69	0xbe7fccbc	-0.24980444
70	0xbea1a821	-0.31573585
71	0xbddbf906	-0.10740857
72	0xbe32b49f	-0.17451714
73	0xbe6b456e	-0.22975704
74	0xbe7b3609	-0.24532332
75	0xbe5fd342	-0.21857932
76	0x3c63e993	0.013910669
77	0x3e8fc83c	0.28082454
78	0x3d912d35	0.07088701
79	0x3d928fe4	0.07156351
80	0xbd13bd6b	-0.036069315
81	0xbd68b243	-0.05681063
82	0x3e039db1	0.12853123
83	0xbcf93b96	-0.03042392
84	0xbdcc38a7	-0.09971743
85	0x3e1f52c2	0.15558913
86	0xbe71563c	-0.23568052
87	0x3da4973f	0.080366604
88	0x3e00fdb9	0.12596788
89	0x3e248b10	0.16068673
90	0x3e6b8b29	0.23002304
91	0xbd35e5bd	-0.04440855
92	0xbd931dd7	-0.07183426
93	0xbe0c0a2b	-0.13675754
94	0x3e845841	0.25848582
95	0x3e85d480	0.26138687
96	0x3e5927e6	0.21206626
97	0xbe17bc8b	-0.14818017
98	0x3e3547c7	0.17703162
99	0xbe670cea	-0.2256352
100	0x3e2fa9ca	0.17154613
101	0xbe833656	-0.25627393
102	0x3e54279b	0.20718233
103	0x3e45afc2	0.19305328
104	0x3e007a3d	0.1254663
105	0xbdf0c53c	-0.117563695
106	0xbe337605	-0.1752549
107	0xbce2ff1e	-0.02770954
108	0xbe742552	-0.23842362
109	0x3e32b2c0	0.17451
110	0xbe47530b	-0.19465272
111	0x3d7cb734	0.061698154
112	0x3e4f92c5	0.20270832
113	0xbe82fc2d	-0.2558302
114	0xbeaae419	-0.3337715
115	0x3e4bf363	0.19917063
116	0xbe46646c	-0.19374245
117	0xbe0c1886	-0.1368123
118	0x3e90202e	0.2814955
119	0x3dfb1207	0.12259298
120	0xbe5f2189	-0.21790136
121	0x3e70b414	0.23506194
122	0x3e0b4a84	0.13602644
123	0x3e39cb42	0.18143943
124	0xbc99e16f	-0.018784253
125	0xbea21670	-0.31657743
126	0xbe452adc	-0.19254631
127	0xbe8d88a6	-0.27643317
128	0x3def6ffc	0.11691281
129	0xbdc6d045	-0.09707693
130	0x3e574876	0.21023735
131	0x3e392b65	0.1808296
132	0xbe2fd768	-0.17172015
133	0x3e24cba6	0.1609331
134	0x3cf6d285	0.03012968
135	0xbdf1b16d	-0.118014194
136	0x3e433650	0.19063687
137	0xbe87818c	-0.26466024
138	0x3d44c2af	0.048037227
139	0xbe83b9ed	-0.25727788
140	0xbe6e9c6a	-0.23301855
141	0xbdc1209b	-0.09430047
142	0x3d596b59	0.05308089
143	0x3e06eecc	0.13177031
144	0xbe46d9ba	-0.19418994
145	0x3dcda9fc	0.100421876
146	0x3e417839	0.18893518
147	0x3e3365ef	0.17519353
148	0x3e36ef2d	0.17864676
149	0xbe6b071e	-0.22951934
150	0x3ea5ebc7	0.32406446
151	0x3d1aa90c	0.037758872
152	0x3dcb6766	0.09931831
153	0x3c691921	0.014227183
154	0x3d25481f	0.040351983
155	0x3e3bbe1c	0.1833424
156	0xbb48c035	-0.0030632142
157	0xbdca124f	-0.09866773
158	0xbd61e0c4	-0.055145994
159	0x3e1e1108	0.15436184
160	0xbd884197	-0.06653135
161	0x3ea51ccc	0.32248533
162	0x3d05b12d	0.03263967
163	0xbb7d9b74	-0.0038697394
164	0xbd508d9a	-0.05091629
165	0x3e48f451	0.1962445
166	0x3e9147e3	0.28375158
167	0x3d157e44	0.03649737
168	0x3d84fe83	0.06493857
169	0xbdfc424c	-0.123173326
170	0x3e136be3	0.14396624
171	0x3c8f4b94	0.017492093
172	0xbdabcbf7	-0.083885126
173	0x3e316768	0.17324603
174	0x3e23a8df	0.15982388
175	0xbea917fb	-0.33026108
176	0x3dbfe608	0.09370047
177	0x3e0bf5df	0.13668011
178	0x3e8645a7	0.26225016
179	0xbe5dd360	-0.21662664
180	0x3e74a586	0.23891267
181	0x3df3a64e	0.118969545
182	0xbcc6735b	-0.024224928
183	0xbdb7b42a	-0.089699104
184	0x3d8b0afd	0.06789205
185	0xbe0318b1	-0.12802388
186	0x3d36d38c	0.04463534
187	0xbe34f1c9	-0.17670359
188	0xbe80181d	-0.25018397
189	0x3e62a7e0	0.22134352
190	0x3ae1616f	0.0017195175
191	0x3e33ec7b	0.17570679
192	0x3c9b6bee	0.018972363
193	0xbe997462	-0.29971606
194	0xbd84d958	-0.064867675
195	0xbe19bd5b	-0.1501364
196	0x3ea8f9e7	0.3300316
197	0x3df8685a	0.121292785
198	0x3cbe0f0f	0.02320054
199	0xbd1a549b	-0.037678342
200	0x3e73b54d	0.2379963
201	0xbeaa72ed	-0.33290806
202	0xbcd8ca29	-0.026463585
203	0xb93314c0	-0.000170785
204	0xbe5ab2b0	-0.21357226
205	0xbeadba48	-0.33931184
206	0x3e1c3818	0.15255773
207	0xbe529b16	-0.20566973
208	0x3db78afd	0.08962057
209	0x3d979d9a	0.07403107
210	0xbe94f97e	-0.29096597
211	0xbc58a563	-0.013223025
212	0xbe867d48	-0.26267457
213	0xbe48c10c	-0.19604892
214	0xbe665b8b	-0.22495858
215	0xbe29b4b8	-0.16572845
216	0xbe86273b	-0.26201805
217	0x3e8c46de	0.27397817
218	0xbdd2880a	-0.10279854
219	0xbd98e959	-0.074663825
220	0x3e6a3273	0.22870807
221	0xbd8b52a5	-0.068028726
222	0x3d6a99c2	0.05727554
223	0x3e6918e4	0.22763401
224	0x3d115315	0.035479624
225	0xbcd95b55	-0.026532808
226	0xbe90cfc7	-0.28283522
227	0x3d0cc2fb	0.034365635
228	0x3e8c198e	0.27363247
229	0xbda09824	-0.078415185
230	0xbdb1906f	-0.08670127
231	0xbdf5db89	-0.12004764
232	0xbdbc0a95	-0.09181706
233	0xbe643920	-0.22287416
234	0xbe62edfa	-0.22161093
235	0x3e8e2c76	0.27768296
236	0x3e35c224	0.1774984
237	0xbe3b5386	-0.1829358
238	0xbe3faa6b	-0.18717353
239	0x3e21c5ef	0.15798162
240	0x3e265598	0.16243589
241	0xbe59108a	-0.21197715
242	0x3d33348a	0.043751277
243	0xbe8d1646	-0.27556056
244	0xbd1c702f	-0.038192924
245	0x3d1abef5	0.037779767
246	0xbcedb02d	-0.029014671
247	0x3e0b4206	0.13599405
248	0x3e46b449	0.19404711
249	0x3e2d55f8	0.16927326
250	0x3e68e71b	0.2274441
251	0x3dce125c	0.100620955
252	0x3e0ed7fe	0.13949582
253	0xbdd7b308	-0.105321944
254	0xbe68e2a3	-0.22742705
255	0x3dcc8fc7	0.09988361

encoder.module_0.lin_rel.bias f4 [128]
0	0xbe8c8e46	-0.27452296
1	0xbdc680d6	-0.09692542
2	0x3d364744	0.044501558
3	0x3e8d33a5	0.27578464
4	0x3e50b31b	0.20380823
5	0x3dddd856	0.108322784
6	0xbe5c68fe	-0.21524426
7	0x3e877a65	0.26460567
8	0xbe485163	-0.19562297
9	0xbd23e94a	-0.040017404
10	0x3e0dd582	0.13850978
11	0xbe7a7968	-0.24460375
12	0xbe95cf02	-0.29259497
13	0xbe6eec7a	-0.23332396
14	0x3e9928be	0.29913896
15	0x3de25b33	0.11052551
16	0x3e67d680	0.22640419
17	0x3e7d8998	0.24759519
18	0xbe9d8b8f	-0.30770537
19	0xbe035f54	-0.12829334
20	0x3e10a0b9	0.14123811
21	0x3d224d08	0.039624244
22	0xbdb79503	-0.089639686
23	0x3ea02bc8	0.31283402
24	0xbd453e41	-0.048155073
25	0xbe27e113	-0.16394453
26	0x3ea34778	0.31890464
27	0xbe5afde8	-0.2138592
28	0x3e8559ff	0.26045224
29	0x3e336261	0.17517997
30	0x3e3352b1	0.17512013
31	0x3e173b06	0.1476861
32	0x3df71eb5	0.12066404
33	0xbc240f5b	-0.010013427
34	0xbea02d2f	-0.31284472
35	0x3e0e9922	0.13925603
36	0x3d152400	0.036411285
37	0xbe25cae2	-0.16190675
38	0x3e1290fb	0.14313118
39	0xbddc1920	-0.1074698
40	0xbe971e9e	-0.29515547
41	0xbe183b75	-0.14866431
42	0x3d5f33ab	0.054492634
43	0xbe818783	-0.252987
44	0x3ea9ad6e	0.3314013
45	0xbdd1d7e1	-0.10246254
46	0x3e963257	0.2933528
47	0xbe6adc1d	-0.22935529
48	0xbd9f1458	-0.07767552
49	0xbdb4f30f	-0.08835422
50	0xbd22cb65	-0.039744753
51	0xbe574950	-0.2102406
52	0x3d150f41	0.0363915
53	0xbdf5c634	-0.12000695
54	0xbe91cc9a	-0.2847641
55	0xbcb78e1f	-0.022406636
56	0xbd8372a2	-0.06418349
57	0x3e8e767a	0.27824765
58	0xbdacf26d	-0.084446765
59	0x3dbd8969	0.092547245
60	0xbe100d60	-0.14067602
61	0xbdf465dc	-0.11933491
62	0xbe013919	-0.12619437
63	0xbe8aa381	-0.2707787
64	0x3dd97981	0.10618878
65	0x3dfec401	0.124397285
66	0xbe79f5a6	-0.24410114
67	0x3dd203e2	0.10254647
68	0xbd3bbc96	-0.045834146
69	0xbd8c85a8	-0.068614304
70	0x3d3d1bbe	0.046169035
71	0xbe88dfca	-0.26733238
72	0xbd185f56	-0.037200294
73	0xbeaa52f6	-0.3326642
74	0x3e59d9af	0.21274446
75	0xbe8deae8	-0.27718282
76	0xbe1b57e8	-0.15170252
77	0x3c687ec0	0.014190376
78	0x3e81156e	0.25211662
79	0xbe5ef458	-0.21772897
80	0xbd31f92b	-0.043450516
81	0x3e465f0e	0.19372198
82	0xbe96e19e	-0.29469007
83	0x3e71599a	0.23569337
84	0x3e790477	0.2431811
85	0x3e45f304	0.19330984
86	0xbc989cec	-0.018629514
87	0x3de69335	0.11258546
88	0x3d0f9973	0.03505845
89	0xbda1e637	-0.07905238
90	0xbe5c329b	-0.2150368
91	0xbcbd690e	-0.023121383
92	0x3e92b2eb	0.2865213
93	0x3dd89a26	0.105762765
94	0xbc0db495	-0.008649011
95	0xbea9fb46	-0.3319952
96	0xbd8812f8	-0.06644243
97	0xbdfb37dc	-0.12266514
98	0x3e5d4952	0.2161
99	0x3e18432d	0.14869376
100	0x3e54730e	0.20747015
101	0xbe8f008e	-0.2793011
102	0x3ca56be5	0.02019305
103	0x3e903e72	0.28172642
104	0x3dbf54c7	0.09342342
105	0xbcbff066	-0.02343006
106	0x3d748ace	0.059702687
107	0x3e6b612e	0.2298629
108	0xbddcf4e6	-0.10788898
109	0x3dbfd576	0.09366886
110	0x3e278036	0.16357502
111	0x3e485082	0.19561961
112	0xbe082ab8	-0.13297546
113	0xbe23ff28	-0.16015303
114	0xbb399287	-0.0028316097
115	0x3e957a9a	0.291951
116	0xbe6525fc	-0.22377771
117	0xbe2c3827	-0.16818295
118	0xbe8fcdb9	-0.2808664
119	0xbddb487b	-0.10707184
120	0x3e753080	0.23944283
121	0x3e7bb709	0.24581541
122	0xbe194c8b	-0.14970605
123	0xbea971ec	-0.33094728
124	0xbe952c8a	-0.29135543
125	0xbe5e8b22	-0.21732762
126	0xbe701760	-0.23446417
127	0xbea0e302	-0.31423193

encoder.module_0.lin_root.weight f4 [128, 9]
0	0xbdecc9e8	-0.11561948
1	0xbde05847	-0.109543376
2	0xbe0169f7	-0.12638079
3	0xbdc617ed	-0.09672532
4	0xbe01b828	-0.12667906
5	0x3c850e7a	0.016242255
6	0xbe44efc3	-0.19232087
7	0x3d6dddd3	0.058072876
8	0xbea5d4d7	-0.32388946
9	0x3e9703e6	0.29495162
10	0x3c12a94b	0.008951495
11	0x3e8ea3d9	0.2785938
12	0x3e9cbd8f	0.30613372
13	0xbcb102ff	-0.021607874
14	0x3d987ca5	0.07445649
15	0xbe55b2da	-0.20869008
16	0x3d8bd810	0.0682832
17	0xbe726241	-0.23670293
18	0xbe22de70	-0.15905166
19	0xbd05dbe4	-0.032680407
20	0x3e8da066	0.27661437
21	0xbe5999a5	-0.21250017
22	0xbd0519d5	-0.03249534
23	0xba0e676f	-0.0005432283
24	0xbe87eee2	-0.2654944
25	0x3eaea75b	0.34112057
26	0x3dff6eaa	0.12472279
27	0xbc8fca25	-0.017552445
28	0x3dc294ab	0.095010124
29	0xbea285bf	-0.31742665
30	0x3d66d674	0.056356862
31	0x3e46c2fc	0.19410318
32	0xbdc68f0d	-0.096952535
33	0xbe344e3e	-0.17607972
34	0xbe90ee6d	-0.28306904
35	0x3e15c187	0.14624606
36	0xbe93468e	-0.28764766
37	0xbe86de78	-0.26341605
38	0x3e03a662	0.12856439
39	0x3e654743	0.22390465
40	0xbe85c9c8	-0.2613051
41	0xbe875101	-0.2642899
42	0x3e01d591	0.12679125
43	0x3e9b3f4f	0.30321738
44	0xbe4da4b1	-0.20082356
45	0xbd80b235	-0.0628399
46	0x3d0860c0	0.033295393
47	0xbe8f80c2	-0.28027922
48	0xbddc25e2	-0.10749413
49	0x3dc6bd61	0.0970409
50	0x3caeb36e	0.021325793
51	0x3e07f3f1	0.1327665
52	0xbc645c14	-0.013937969
53	0x3ea68a77	0.32527515
54	0xbec74ffd	-0.38928214
55	0xbe3a4d42	-0.18193534
56	0x3e1773a9	0.14790215
57	0xbde14352	-0.109991685
58	0xbe02c088	-0.12768757
59	0x3e2c40eb	0.16821639
60	0xbe3aa56e	-0.18227169
61	0xbe681e4a	-0.22667804
62	0x3e879b79	0.26485804
63	0x3db53ae9	0.08849127
64	0xbd6ae835	-0.057350356
65	0xbe4481d3	-0.19190149
66	0xbe9e4494	-0.30911696
67	0xbe758c86	-0.23979387
68	0xbe8224ab	-0.254186
69	0xbdcecb76	-0.10097401
70	0xbe343660	-0.17598867
71	0xbec00cd2	-0.3750978
72	0xbd73a7d6	-0.059486233
73	0x3d30a8c2	0.04312969
74	0xbd025293	-0.03181703
75	0xbd66bad7	-0.056330528
76	0xbd9ffa13	-0.0781137
77	0xbd89d6d5	-0.06730429
78	0xbe90ecc0	-0.28305626
79	0xbe8644e8	-0.26224446
80	0x3e71a35a	0.2359747
81	0x3e919379	0.28432825
82	0xbe5b83be	-0.21436974
83	0x3d51ae55	0.051191647
84	0x3d1653f5	0.03670116
85	0xbc5f960e	-0.013646616
86	0x3e148bee	0.14506504
87	0x3e369662	0.17830804
88	0x3e838021	0.25683692
89	0xbe9e784f	-0.30951163
90	0xbea34b43	-0.31893358
91	0xbd7ee704	-0.062232032
92	0xbe491f92	-0.1964095
93	0xbe5188f7	-0.20462404
94	0xbe039863	-0.128511
95	0xbe64ff65	-0.2236305
96	0xbeaf1a27	-0.3419964
97	0x3e2ae990	0.1669066
98	0x3da20fce	0.07913171
99	0xbdf61e8f	-0.12017547
100	0xbe79fb82	-0.24412349
101	0x3d709c34	0.058742717
102	0xbe295893	-0.16537695
103	0xbd209a37	-0.03920957
104	0xbe3ec9c8	-0.18631661
105	0x3e9299e4	0.28633034
106	0xbeb8a2c0	-0.36061668
107	0xbe77274a	-0.24136081
108	0x3e1d0160	0.15332556
109	0xbe8904ff	-0.26761624
110	0x3e0b9602	0.13631442
111	0xbd7dad69	-0.061932955
112	0x3e88ebbe	0.26742357
113	0x3e21f712	0.15816906
114	0xbec05400	-0.37564087
115	0x3e896510	0.26834917
116	0x3e4218df	0.189548
117	0xbce2434c	-0.02761998
118	0x3e1df2ed	0.154247
119	0x3e167517	0.14693104
120	0x3e7dbf40	0.24779987
121	0xbe05ec6e	-0.13078472
122	0x3e1c5ec2	0.15270522
123	0xbd5c3f89	-0.05377153
124	0x3db8088e	0.08986007
125	0xbe324636	-0.17409596
126	0x3e5231a1	0.20526744
127	0x3e819a33	0.25312957
128	0xbe44baa1	-0.19211818
129	0xbe8b7f02	-0.27245337
130	0x3cae9e27	0.021315647
131	0xbc27e98b	-0.010248552
132	0xbe7e1298	-0.2481178
133	0xbed04f43	-0.40685472
134	0xbedab1b3	-0.427137
135	0x3e3b7a25	0.18308313
136	0x3d8da381	0.069159515
137	0x3e0dd245	0.13849743
138	0xbd66c756	-0.056342445
139	0xbe30350d	-0.17207737
140	0xbdf6a1ad	-0.12042556
141	0xbe8c40ac	-0.2739309
142	0xbf002187	-0.5005116
143	0x3c408fbf	0.011753022
144	0xbdbeecae	-0.09322487
145	0x3e593c53	0.21214418
146	0x3dc5a07b	0.0964975
147	0xbe4e20bb	-0.20129673
148	0xbe5c8c99	-0.21538009
149	0xbdbbcb46	-0.09169631
150	0x3e851517	0.25992653
151	0xbecae339	-0.39626482
152	0xbe6ea810	-0.23306298
153	0x3d84f305	0.06491665
154	0x3e56dc39	0.20982446
155	0x3dec9669	0.11552126
156	0xbe0e3732	-0.13888243
157	0xbe403e98	-0.18773878
158	0xbe142c94	-0.1447013
159	0xbe30842e	-0.17237923
160	0x3e9f435e	0.31106085
161	0xba22130c	-0.0006182648
162	0xbe146507	-0.14491664
163	0x3e9455e9	0.28971794
164	0x3cb4c80a	0.022068042
165	0xbd90a358	-0.07062405
166	0x3da0c76c	0.07850537
167	0x3e343797	0.17599331
168	0xbe5934f3	-0.21211605
169	0xbde6ac4e	-0.11263333
170	0x3e5b0466	0.21388397
171	0xbdabf576	-0.08396427
172	0x3d79a5ab	0.06094901
173	0x3e9f9dde	0.3117513
174	0x3d8dcb16	0.06923501
175	0x3dcf91cf	0.10135233
176	0xb9a65215	-0.00031723143
177	0xbe2a735a	-0.16645566
178	0x3eba2cdf	0.3636236
179	0xbe371c50	-0.17881894
180	0x3ea6ffc5	0.32617012
181	0xbe887a04	-0.2665559
182	0xbebce49d	-0.36893168
183	0xbd0c7d64	-0.03429927
184	0x3ce2278c	0.027606748
185	0x3c8a1746	0.0168568
186	0x3e12520d	0.14289112
187	0xbe81b884	-0.25336087
188	0x3e93e634	0.2888657
189	0xbe8c1c33	-0.27365264
190	0xbdf1ab99	-0.11800308
191	0x3e89e03f	0.269289
192	0xbd86d26a	-0.06583102
193	0x3d70e990	0.058816493
194	0xbe04e76c	-0.12978905
195	0x3e49bc83	0.19700818
196	0x3eb7ac26	0.35873526
197	0x3dc317fe	0.095260605
198	0x3e27d8d0	0.16391301
199	0x3a002ea0	0.000488976
200	0xbddbf60f	-0.10740291
201	0x3db6c9a9	0.08925182
202	0x3e3ad93e	0.18246934
203	0xbd7a1b2e	-0.061061077
204	0x3e3b3e14	0.182854
205	0x3c906bab	0.017629465
206	0x3e4f6ee5	0.20257147
207	0xbd930038	-0.07177776
208	0x3e23f47b	0.1601123
209	0xbe4df2e9	-0.20112194
210	0x3ddebdc6	0.1087604
211	0xbcc191ab	-0.02362903
212	0xbd91b1f9	-0.07114024
213	0x3e7718ad	0.24130507
214	0xbd01e550	-0.03171283
215	0x3e692c00	0.22770691
216	0x3e7895e2	0.24275926
217	0xbe33fef5	-0.17577727
218	0x3e5308ac	0.20608777
219	0xbe157664	-0.14595944
220	0x3da7578e	0.081709966
221	0xbdd5d666	-0.10441284
222	0xbecd3d00	-0.40085602
223	0x3dfe1c9d	0.12407801
224	0xbeca64a2	-0.39529902
225	0xbdcd33e0	-0.1001966
226	0x3d8c033d	0.06836555
227	0x3e8405f9	0.25785807
228	0x3e7055fb	0.23470299
229	0x3e8d1d2f	0.27561328
230	0x3e4e9fd0	0.20178151
231	0x3e91e060	0.28491497
232	0x3e1f8b84	0.15580565
233	0x3d2b0237	0.04175016
234	0xbd54b167	-0.051926997
235	0x3e45ebb7	0.193282
236	0x3e9ee42a	0.3103345
237	0xbea5857f	-0.32328412
238	0x3eabb7a8	0.33538556
239	0xbe905dcf	-0.2819657
240	0xbea0388c	-0.31293142
241	0x3e4c1c71	0.19932725
242	0x3dbfa1c6	0.09357028
243	0x3e83ce3a	0.25743276
244	0x3d997551	0.074930795
245	0x3d38d589	0.045125518
246	0xbeb4ee75	-0.35338178
247	0xbd076218	-0.033052534
248	0x3e682ef2	0.22674158
249	0xbda0e534	-0.07856217
250	0x3ecec487	0.40384313
251	0xbe8902ea	-0.26760036
252	0xbe1c398a	-0.15256324
253	0x3daa7aa5	0.08324174
254	0xbe68f853	-0.22750978
255	0xbe301312	-0.17194775

encoder.module_1.weight f4 [128]
0	0x3f82f570	1.0231152
1	0x3f7bdc18	0.9838271
2	0x3f7d51c1	0.9895287
3	0x3f828db2	1.0199492
4	0x3f7a233e	0.97710025
5	0x3f853a2d	1.0408379
6	0x3f7a4b5c	0.9777124
7	0x3f7aea6a	0.9801394
8	0x3f802639	1.0011665
9	0x3f8241d4	1.0176339
10	0x3f78581f	0.9700946
11	0x3f763040	0.96167374
12	0x3f81906d	1.01222
13	0x3f7ebd6c	0.99507785
14	0x3f841508	1.0318918
15	0x3f77be80	0.96775055
16	0x3f7f7ac9	0.9979673
17	0x3f7bf95c	0.9842737
18	0x3f7eed7b	0.99581116
19	0x3f82baf8	1.0213308
20	0x3f84d209	1.0376598
21	0x3f807a06	1.0037239
22	0x3f84d597	1.0377682
23	0x3f830cb5	1.0238253
24	0x3f80043d	1.0001293
25	0x3f7fd18e	0.9992913
26	0x3f73de5b	0.9526116
27	0x3f81b915	1.0134608
28	0x3f846dc0	1.0345993
29	0x3f802871	1.0012342
30	0x3f80aa17	1.0051907
31	0x3f75bacc	0.95988154
32	0x3f802185	1.0010229
33	0x3f7ad87e	0.9798659
34	0x3f79d356	0.975881
35	0x3f76ee3d	0.9645727
36	0x3f7935ec	0.97347903
37	0x3f80d001	1.0063478
38	0x3f8626f3	1.0480636
39	0x3f7b9eb7	0.98289055
40	0x3f8148f2	1.0100386
41	0x3f843e60	1.0331535
42	0x3f7bdefc	0.9838712
43	0x3f80786d	1.0036751
44	0x3f7d9b9b	0.9906556
45	0x3f7fce9d	0.9992464
46	0x3f7f0d2d	0.9962948
47	0x3f7fb287	0.99881786
48	0x3f78ef3f	0.9724006
49	0x3f810a58	1.0081282
50	0x3f8646ff	1.0490416
51	0x3f7f16f6	0.9964441
52	0x3f7d9e95	0.990701
53	0x3f81e17b	1.0146936
54	0x3f83413f	1.0254287
55	0x3f836014	1.0263696
56	0x3f772ad5	0.9654973
57	0x3f80ad18	1.0052824
58	0x3f7f1274	0.9963753
59	0x3f8342ad	1.0254723
60	0x3f816ee6	1.0111969
61	0x3f801170	1.0005322
62	0x3f7ba322	0.98295796
63	0x3f847511	1.0348226
64	0x3f80da89	1.0066692
65	0x3f7d02b2	0.9883224
66	0x3f805051	1.0024511
67	0x3f79c626	0.97567976
68	0x3f81508f	1.010271
69	0x3f7e5668	0.99350595
70	0x3f7df444	0.99200845
71	0x3f7e47ef	0.9932851
72	0x3f7febe6	0.9996933
73	0x3f827e5b	1.0194811
74	0x3f77d8e8	0.9681535
75	0x3f79d268	0.9758668
76	0x3f775f7b	0.96630067
77	0x3f80e6ba	1.0070412
78	0x3f7e469f	0.9932651
79	0x3f7f62b8	0.9976001
80	0x3f820e78	1.0160666
81	0x3f778759	0.966909
82	0x3f804178	1.001998
83	0x3f842a05	1.0325323
84	0x3f820408	1.015748
85	0x3f7f318a	0.99684966
86	0x3f8219be	1.0164106
87	0x3f80d9f3	1.0066513
88	0x3f79b3cf	0.9753999
89	0x3f74f99d	0.9569338
90	0x3f826ee1	1.0190088
91	0x3f80aae6	1.0052154
92	0x3f843dd5	1.033137
93	0x3f81c95e	1.0139577
94	0x3f766be3	0.9625837
95	0x3f84b33f	1.0367202
96	0x3f79f101	0.9763337
97	0x3f804e9f	1.0023993
98	0x3f77997f	0.9671859
99	0x3f7e9233	0.9944183
100	0x3f744051	0.9541064
101	0x3f76914d	0.9631546
102	0x3f888db5	1.0668246
103	0x3f8242e0	1.0176659
104	0x3f7de7c1	0.99181753
105	0x3f803596	1.0016353
106	0x3f76b41a	0.96368563
107	0x3f7fb337	0.99882835
108	0x3f81460f	1.0099505
109	0x3f7770c2	0.9665643
110	0x3f75c7d7	0.96008056
111	0x3f79b5bf	0.9754295
112	0x3f8238a9	1.0173541
113	0x3f7f6c46	0.9977459
114	0x3f81873d	1.0119396
115	0x3f819604	1.0123906
116	0x3f7b8bfa	0.9826046
117	0x3f7673cd	0.9627045
118	0x3f80f65f	1.0075186
119	0x3f76673a	0.9625126
120	0x3f80cc6b	1.0062383
121	0x3f814098	1.0097837
122	0x3f809b36	1.0047367
123	0x3f81af6d	1.0131661
124	0x3f7a8fbe	0.97875583
125	0x3f7a5f55	0.97801715
126	0x3f7b2da1	0.981165
127	0x3f7dd939	0.9915958

encoder.module_1.bias f4 [128]
0	0xbd98a158	-0.07452649
1	0xbd0ebc6e	-0.03484767
2	0xbccd0560	-0.025026977
3	0x3d3cbc6e	0.046078138
4	0x3cae9732	0.02131233
5	0xbd011507	-0.031514194
6	0x3a8e6417	0.0010863569
7	0xbd9925e5	-0.07477931
8	0xbb8f5b8b	-0.0043749264
9	0x3c05763f	0.008145868
10	0xbd297c4a	-0.041378297
11	0xbd637d88	-0.055539638
12	0x3ce84fb6	0.028358322
13	0x3c43abd7	0.011942825
14	0xbd580ac0	-0.052744627
15	0xbd813f89	-0.063109465
16	0xbb9cb838	-0.004782703
17	0xbc8e09eb	-0.017338714
18	0x3c6fde2c	0.014640372
19	0xbd8157ee	-0.063155994
20	0x3d30d890	0.04317528
21	0xbc082830	-0.008310363
22	0x3d4ba066	0.049713515
23	0x3b747f3b	0.003730728
24	0xbd9498a8	-0.07255679
25	0x3c47e622	0.012200864
26	0xbd722f73	-0.059127282
27	0x3d4c7c26	0.049923085
28	0xbca0fbc6	-0.019651305
29	0xbc135403	-0.008992198
30	0x3cd4b10c	0.025963329
31	0xbdacaabe	-0.08431004
32	0x3c66408e	0.014053477
33	0xbc05f69c	-0.008176472
34	0xbc3fd78d	-0.011709106
35	0xbd21cd89	-0.039502654
36	0x3beec8bf	0.0072871144
37	0x3d30952a	0.043111004
38	0x3da3f901	0.08006478
39	0xbcceff6c	-0.025268279
40	0x3c28195a	0.0102599505
41	0xbc4736da	-0.012159074
42	0xbb75994a	-0.00374754
43	0xbcd97c36	-0.026548486
44	0xbc090d39	-0.008364969
45	0x3c8989a1	0.01678926
46	0xbcaf108e	-0.021370199
47	0xbc0b05d0	-0.0084852725
48	0xbd2aeeb1	-0.04173154
49	0x3b5b9059	0.0033502786
50	0xbca1f531	-0.019770237
51	0x3bf63a6b	0.007514288
52	0x3a5e2e09	0.00084754877
53	0xbd03bea4	-0.03216423
54	0xbd8e26a7	-0.06940966
55	0xba928612	-0.0011178872
56	0xbc4f1cc4	-0.012641136
57	0x3baf807d	0.005355893
58	0x3c8d6b2f	0.017263023
59	0x3cead600	0.028666496
60	0xbc7e74b8	-0.015530758
61	0xbce0ee5f	-0.027457414
62	0xbd219c6c	-0.039455816
63	0x3cfafdd0	0.030638605
64	0x3cb81c0d	0.022474313
65	0xbda977b4	-0.08274785
66	0xbd83cde1	-0.06435753
67	0xbc906943	-0.017628318
68	0xbbcda001	-0.0062751775
69	0xbcd236ee	-0.025660958
70	0xbccd111c	-0.025032572
71	0xbd9b1b27	-0.07573538
72	0xbd1830bb	-0.037155848
73	0xbc8ba009	-0.017044084
74	0xbd0fad65	-0.03507747
75	0xbb1f95c5	-0.0024350744
76	0xbd100441	-0.035160307
77	0xbc4b5a1d	-0.012411621
78	0xbc06de7c	-0.008231755
79	0xbd80f36b	-0.06296428
80	0x3cb4e42a	0.022081453
81	0xbcd11d3b	-0.025526633
82	0xbd38ef0e	-0.045149855
83	0xbd9d87ae	-0.076918945
84	0xbd82a2e9	-0.06378729
85	0xbd42e114	-0.047577932
86	0x3ce78f11	0.028266462
87	0x390d497d	0.00013474184
88	0xbdcab637	-0.09898036
89	0xbda5771c	-0.08079359
90	0x3a27685b	0.00063860946
91	0x3c311063	0.01080713
92	0xbb3163e2	-0.0027067591
93	0x3c829cac	0.015943848
94	0xbcaf2ccd	-0.021383667
95	0x3ca871a1	0.020561995
96	0xbce5d3bf	-0.02805507
97	0xbd26f17b	-0.040757637
98	0xbc6aa516	-0.014321586
99	0x3bde1691	0.0067775925
100	0xbdab572f	-0.08366238
101	0xbc8a8735	-0.016910175
102	0x3ba08050	0.0048981085
103	0x3d7bf214	0.06151016
104	0xbd22ecc9	-0.039776597
105	0xbd34424a	-0.04400853
106	0xbcdadc76	-0.026716452
107	0x3b86bbe0	0.004111752
108	0x3c07fe06	0.00830031
109	0xbcd6c9c6	-0.02621926
110	0xbc5b92f9	-0.01340174
111	0xbcc9ae62	-0.024619285
112	0x3c4edfa0	0.012626559
113	0x3c39ca2c	0.011339705
114	0x3a0a957c	0.0005286557
115	0x3c846a6b	0.016164025
116	0xbcd3daab	-0.025861105
117	0xbd5c3977	-0.05376574
118	0x3ce0cebe	0.027442332
119	0xbce09e73	-0.027419304
120	0xbd1a051a	-0.03760252
121	0xbb81aae9	-0.0039571417
122	0x3d376c23	0.04478086
123	0xbbaeecd5	-0.005338291
124	0xbd87454e	-0.06605016
125	0x3be2a490	0.00691659
126	0xbd321adc	-0.043482646
127	0x3a30553d	0.00067265687

encoder.module_1.running_mean f4 [128]
0	0xbf6510af	-0.8947858
1	0x3e39d1c5	0.18146427
2	0x3e3b73f7	0.18305956
3	0x3cff580a	0.03116991
4	0x3d8100b1	0.0629896
5	0x3f1a92ac	0.60380054
6	0xbe028ad4	-0.12748271
7	0xbf970b44	-1.1800313
8	0xbee70c88	-0.45126748
9	0x3de3f0d0	0.11129916
10	0xbe77eaa9	-0.2421061
11	0xbf5ae9c2	-0.85512936
12	0x3dbbcd7f	0.09170055
13	0xbe250995	-0.16116937
14	0xbf5a9e2a	-0.8539759
15	0xbf397fa4	-0.7246039
16	0xbeaec8df	-0.34137627
17	0x3e1f86b0	0.15578723
18	0x3d1c63a3	0.03818096
19	0x3d8c6156	0.06854503
20	0x3dce3314	0.10068336
21	0x3f10b9e3	0.5653364
22	0x3e9088f2	0.2822948
23	0x3ebe3268	0.37147832
24	0xbf2c82ef	-0.6738729
25	0x3f407f2d	0.75194055
26	0x3e796d3c	0.24358076
27	0xbe34c05f	-0.17651509
28	0xbef92322	-0.48659617
29	0xbe31524e	-0.17316553
30	0x3f545800	0.8294678
31	0xbe90bdc8	-0.28269792
32	0x3f160f0f	0.5861673
33	0xbeaccb4c	-0.33748853
34	0x3dae1986	0.08500962
35	0x3de419f1	0.111377604
36	0x3f7b6635	0.9820283
37	0x3e253fb0	0.16137576
38	0x3dbe3c4e	0.09288846
39	0xbe2c4eb4	-0.16826898
40	0xbef238a6	-0.47308844
41	0xbf2aab80	-0.6666794
42	0x3f0997bb	0.5374715
43	0xbebeb699	-0.37248686
44	0x3bcac34e	0.006187833
45	0xbd79d0f5	-0.060990293
46	0x3e0e20eb	0.13879745
47	0xbebd295e	-0.36945623
48	0xbf02ab4e	-0.5104264
49	0xbcfc36a2	-0.03078777
50	0x3ef50c9e	0.4786119
51	0x3f29137e	0.6604537
52	0x3e675b0d	0.22593327
53	0xbf08090d	-0.5313881
54	0xbf96ee3d	-1.1791455
55	0x3db3ee51	0.087856896
56	0xbef0ce80	-0.47032547
57	0x3f3d9100	0.7404938
58	0xbe100922	-0.14065984
59	0xbe8bd70a	-0.273125
60	0x3e487455	0.19575627
61	0xbe31b578	-0.17354381
62	0xbfc8d1cb	-1.5689024
63	0xbec3b402	-0.38223273
64	0x3e62b232	0.22138289
65	0xbf48d0b1	-0.7844344
66	0xbfb6aa19	-1.427066
67	0x3db02031	0.0859989
68	0xbe7915c7	-0.24324714
69	0xbec03ab4	-0.37544787
70	0x3f4049c1	0.7511254
71	0xbf42190d	-0.75819474
72	0xbf2c5c7b	-0.67328614
73	0xbeaf1516	-0.34195775
74	0xbf37d302	-0.7180635
75	0xbe0caf4c	-0.13738745
76	0x3d912e1a	0.07088871
77	0xbf45d785	-0.7728198
78	0xbc8de2e1	-0.017320098
79	0xbf2a5821	-0.66540724
80	0x3e85be78	0.2612188
81	0x3e288efd	0.16460796
82	0xbfa05f48	-1.2529078
83	0xbe8350f5	-0.25647703
84	0xbecf60e9	-0.40503624
85	0xbf1a850e	-0.60359275
86	0x3f456add	0.77116185
87	0x3e82e6d4	0.25566733
88	0x3e3a2093	0.18176489
89	0xbf0dd9a5	-0.55410224
90	0x3eb94e31	0.36192468
91	0x3e8e84c3	0.27835664
92	0x3e14d0f9	0.14532842
93	0x3ee8503b	0.4537371
94	0x3c373d08	0.011183985
95	0xbe5faaa5	-0.2184244
96	0x3ecb6b9f	0.39730546
97	0xbf55b96f	-0.83486074
98	0x3e3b1dbe	0.18273064
99	0x3e9bb43c	0.30410945
100	0xbb0c9ec8	-0.0021456946
101	0xbe44d3cc	-0.19221419
102	0xbe2aa2b0	-0.16663623
103	0x3f05f663	0.5232908
104	0x3da932ea	0.08261664
105	0xbf44f375	-0.76933986
106	0x3ed31c72	0.4123264
107	0x3f2f8952	0.6856891
108	0x3ecaa364	0.39577782
109	0xbc7377aa	-0.014860073
110	0x3edee3ec	0.43533266
111	0x3f0c5018	0.54809713
112	0xbe4bf04d	-0.19915886
113	0x3f089c96	0.5336393
114	0xbcb334d8	-0.021875784
115	0x3f33964f	0.7015123
116	0x3d0ace66	0.033888243
117	0xbf6bb119	-0.92067105
118	0xbd55edb4	-0.052228644
119	0xbd902cad	-0.07039771
120	0xbed472d0	-0.41493845
121	0xbe31e178	-0.17371166
122	0xbea5ff12	-0.32421166
123	0xbf9e5b67	-1.2371644
124	0xbeb83fbe	-0.3598613
125	0xbd7b0d82	-0.06129218
126	0xbf3967ef	-0.72424215
127	0xbe2a2684	-0.16616255

encoder.module_1.running_var f4 [128]
0	0x3d1c55fc	0.03816794
1	0x3d1db3ab	0.038501423
2	0x3ca210f2	0.01978347
3	0x3c0fb220	0.008770496
4	0x3d80389e	0.06260799
5	0x3d64a179	0.055818055
6	0x3da26e37	0.07931178
7	0x3e0a2b74	0.13493139
8	0x3c034c65	0.008013819
9	0x3d06ed16	0.032940947
10	0x3cf8aad1	0.03035489
11	0x3d1435dd	0.03618418
12	0x3ce1753d	0.027521724
13	0x3cedbc58	0.029020473
14	0x3dac31eb	0.084079586
15	0x3d3ee17c	0.046601757
16	0x3d10c689	0.035345588
17	0x3cc12b7e	0.023580309
18	0x3d2c9652	0.042135544
19	0x3c502f75	0.012706627
20	0x3d85d758	0.06535214
21	0x3d15911f	0.03651535
22	0x3cafc470	0.021455973
23	0x3ca58c09	0.020208376
24	0x3d71ba92	0.059015818
25	0x3cf5ea75	0.030019024
26	0x3d5de8a7	0.054176953
27	0x3cd51bd5	0.026014248
28	0x3d1ecb4d	0.0387681
29	0x3cec2f52	0.028831158
30	0x3d2a2a80	0.041544437
31	0x3cf6f3a7	0.03014548
32	0x3d074395	0.033023436
33	0x3cbc55df	0.022990165
34	0x3d0aacff	0.03385639
35	0x3d592d2f	0.053021606
36	0x3dc0cb39	0.09413762
37	0x3c8cf0d5	0.017204681
38	0x3c344e7c	0.01100504
39	0x3ce77a69	0.028256612
40	0x3d001d64	0.03127803
41	0x3d005692	0.03133256
42	0x3d09e8d4	0.033669308
43	0x3c2da654	0.010598738
44	0x3cba26f6	0.022723656
45	0x3cb6d164	0.022316642
46	0x3cfb126b	0.03064843
47	0x3cd524ac	0.026018463
48	0x3cfadaca	0.030621905
49	0x3d85e4be	0.0653777
50	0x3c661a26	0.01404432
51	0x3db4e997	0.08833616
52	0x3d36f360	0.044665694
53	0x3c29ab2a	0.01035575
54	0x3d8c1cbb	0.068414174
55	0x3d4ebc07	0.050472286
56	0x3d057648	0.032583505
57	0x3d880861	0.06642223
58	0x3c37b99c	0.011213686
59	0x3d153b0e	0.036433272
60	0x3d63e3af	0.055637058
61	0x3d34a825	0.044105668
62	0x3e0fadbd	0.1403112
63	0x3d24cf28	0.040236622
64	0x3d275cbe	0.04085993
65	0x3db6370f	0.0889722
66	0x3e00aa9d	0.12565084
67	0x3db13a65	0.08653716
68	0x3c996e83	0.018729454
69	0x3cd2cb06	0.025731575
70	0x3d87db0d	0.066335775
71	0x3d7e3263	0.06205977
72	0x3d865a14	0.0656015
73	0x3d2d590f	0.04232126
74	0x3df56ef2	0.11984052
75	0x3d2e035d	0.042483676
76	0x3d636a50	0.05552131
77	0x3c88a22c	0.016678892
78	0x3d08571b	0.033286195
79	0x3d83c89c	0.064347476
80	0x3d8e374f	0.06944143
81	0x3d26ee0a	0.040754355
82	0x3d565aff	0.052332874
83	0x3d835c12	0.064140454
84	0x3c8dfcc6	0.017332446
85	0x3dad49b4	0.084613234
86	0x3d23da61	0.040003184
87	0x3c49d1b6	0.012318065
88	0x3c7151a5	0.014728938
89	0x3d978bf0	0.07399738
90	0x3d9b2104	0.075746566
91	0x3d63fcf5	0.05566116
92	0x3d34f89e	0.044182412
93	0x3dc32ca6	0.095300004
94	0x3d0e090b	0.034676593
95	0x3c7b5feb	0.015342693
96	0x3cc7982c	0.024364553
97	0x3ce91114	0.028450526
98	0x3d3ec5af	0.046575245
99	0x3d854315	0.065069355
100	0x3d64b67d	0.055838097
101	0x3d3e5a0d	0.046472598
102	0x3b979431	0.00462582
103	0x3c5984e7	0.013276315
104	0x3d35009d	0.044190038
105	0x3d512d74	0.051068738
106	0x3d075891	0.033043448
107	0x3d1c4309	0.038149867
108	0x3d2af78c	0.041739985
109	0x3cface00	0.030615807
110	0x3ccdd9b5	0.025128225
111	0x3d460cbb	0.048351984
112	0x3c86e973	0.01646874
113	0x3d54f54f	0.051991757
114	0x3d077bf3	0.03307719
115	0x3d33f6aa	0.04393641
116	0x3d1ce5b1	0.03830499
117	0x3d1e8b55	0.038707096
118	0x3d0e038b	0.034671348
119	0x3d1fd686	0.039022945
120	0x3d0d6db9	0.034528468
121	0x3d3f21db	0.046663146
122	0x3c66ddb9	0.014090949
123	0x3df1c76c	0.11805615
124	0x3c97605c	0.018478565
125	0x3d585c92	0.052822657
126	0x3d3c3718	0.04595098
127	0x3d882ba3	0.06648948

encoder.module_4.lin_rel.weight f4 [128, 128]
0	0x3cb7e892	0.022449765
1	0xbdc67a38	-0.0969128
2	0x3d211ac4	0.039332166
3	0xbdd04886	-0.10170083
4	0x3c9cf62a	0.019160349
5	0xbcd56058	-0.026046917
6	0xbd1e8ade	-0.038706653
7	0xbc54a7fa	-0.012979502
8	0xbcf1ebf9	-0.029531466
9	0x3c111482	0.008854987
10	0xbd1d04b6	-0.03833457
11	0x3d4a7786	0.049430393
12	0xbd89640e	-0.06708537
13	0xbd49e05d	-0.049286235
14	0xbc3eda8e	-0.011648787
15	0x3ce319ad	0.027722204
16	0x3d5023c4	0.05081536
17	0x3d75e3e4	0.060031787
18	0x3b81192b	0.003939768
19	0x3d219436	0.039447986
20	0xbd4f5e66	-0.050627135
21	0x3d1b5524	0.037922993
22	0xbd52e365	-0.05148639
23	0x3bb7516d	0.0055944235
24	0x3d1cd2cc	0.03828697
25	0xbd041037	-0.032242026
26	0x3d2ae550	0.041722596
27	0xbd7c0b7f	-0.0615344
28	0x3d368bdd	0.044566978
29	0xbc7ff478	-0.015622251
30	0x3d15d741	0.036582235
31	0x3d8f552e	0.069986686
32	0xbccb4a1f	-0.024815617
33	0x3d273cb3	0.04082937
34	0x3ac5bb87	0.0015085795
35	0x3d12a369	0.03580037
36	0x3c956aaf	0.018239347
37	0x3da44231	0.080204375
38	0x3d18479d	0.03717767
39	0xbd13172b	-0.035910767
40	0x3cf04621	0.029330315
41	0x3d249461	0.040180568
42	0x3c7c60ce	0.015403939
43	0xbd946aa7	-0.07246905
44	0xbd8e647a	-0.06952758
45	0x3ca1a374	0.01973126
46	0xbd626281	-0.055269722
47	0xbda5e60e	-0.0810052
48	0x3d845a58	0.06462544
49	0xbcc66bb9	-0.024221288
50	0xbd4f62c3	-0.050631296
51	0x3d3854f7	0.045002904
52	0xbda98a9c	-0.08278391
53	0xbb49eeb7	-0.003081245
54	0x3d232f92	0.03984029
55	0xbd1fb19a	-0.038987733
56	0x3c6c77b8	0.01443284
57	0x3ce4a009	0.027908342
58	0x3d6c0652	0.057623215
59	0xbd8604ea	-0.06543906
60	0xbd4a5e94	-0.049406603
61	0xbcaddf99	-0.021224784
62	0xbda48a24	-0.08034161
63	0x3d5f2b1f	0.054484483
64	0xbc06514f	-0.008198096
65	0x3ce128e4	0.027485318
66	0x3c42b90f	0.011884942
67	0xbc6ea6dc	-0.01456615
68	0xbd71e8b2	-0.059059806
69	0xbb84845d	-0.0040440992
70	0xbd7171c7	-0.058946397
71	0x3d215bfe	0.03939437
72	0xbd917814	-0.07102981
73	0xbdb40858	-0.08790654
74	0x3d8b2dbe	0.06795834
75	0x3d51fad2	0.05126459
76	0xbd8da28d	-0.0691577
77	0xbd2bb0a1	-0.041916493
78	0x3d5a684b	0.053322118
79	0xbb39396d	-0.0028262988
80	0x3d43c30c	0.047793433
81	0xbd6bf245	-0.057604093
82	0xbdb45f9a	-0.08807297
83	0xbd1fec1a	-0.039043523
84	0x3d0cbdfa	0.034360863
85	0xbc820fad	-0.015876615
86	0xbd0d4212	-0.034486838
87	0xbd7b442a	-0.061344303
88	0x3de4c2cf	0.11169969
89	0xbdc1efd9	-0.094695754
90	0x3ccbc3cc	0.024873637
91	0xbb9c1060	-0.0047626942
92	0x3c8f2d7c	0.017477743
93	0xbd0bd433	-0.034137916
94	0xbda6e3e7	-0.08148938
95	0x3d542cfd	0.051800717
96	0x3cf79953	0.030224478
97	0xbd1aaee3	-0.03776444
98	0xbd460703	-0.04834653
99	0x3d72d844	0.05928828
100	0xbd5ae8f4	-0.053444818
101	0xbcf24f31	-0.029578777
102	0x3d93c8dd	0.07216046
103	0xbd995474	-0.07486811
104	0xbca21f18	-0.019790217
105	0xbbaf144f	-0.005342997
106	0xbc125ae6	-0.008932805
107	0xbc2f22b5	-0.010689427
108	0xbd850d60	-0.06496692
109	0xbcaad621	-0.020854058
110	0x3c3a80ff	0.011383294
111	0xbc1c6606	-0.009545809
112	0x3d5a3a54	0.053278282
113	0x3d4a36d2	0.049368687
114	0x3b5ff6b1	0.003417414
115	0xbc4d9e88	-0.012550004
116	0x3a520d4e	0.0008012847
117	0x3c5e1d85	0.013556843
118	0xbd3c6fe4	-0.046005145
119	0x3c0df42b	0.008664171
120	0xbd7c5977	-0.061608758
121	0xbca7c2c6	-0.020478617
122	0xbd4f3f62	-0.050597556
123	0xbdac4b97	-0.08412855
124	0x3c98fbad	0.018674696
125	0xbca821e6	-0.020523977
126	0xbda6c0a4	-0.08142212
127	0x3d1c834e	0.03821116
128	0x3ccffbb6	0.02538858
129	0xbda8b005	-0.08236698
130	0xbcd29be6	-0.025709104
131	0x3dc25ee4	0.09490755
132	0xbbb04cb6	-0.0053802384
133	0x3d6d7d10	0.057980597
134	0x3d5151ab	0.051103275
135	0xbd84072d	-0.06446681
136	0x3cd09848	0.025463238
137	0xbd2d38bb	-0.04229043
138	0x3c85fb4f	0.016355185
139	0x3dbbf5fe	0.09177779
140	0xbd731905	-0.059350032
141	0xbd2f47f6	-0.042793237
142	0xbcd91263	-0.026498025
143	0x3cd25dc8	0.025679484
144	0xbd8779e1	-0.066150434
145	0xbd3ee32a	-0.04660336
146	0x3cc8bf19	0.024505185
147	0xbd9b646d	-0.07587514
148	0x3d58b752	0.052909203
149	0xbdceafb6	-0.10092108
150	0xbbc1b3ac	-0.005911311
151	0x3be23207	0.0069029364
152	0x3d3885ed	0.045049597
153	0xbd3c6c11	-0.046001498
154	0x3c6f63d7	0.014611206
155	0xbd227da4	-0.0396706
156	0xbd084faf	-0.033279117
157	0x3d8acf4b	0.06777819
158	0x3d2b737c	0.04185818
159	0xbc6be86f	-0.014398678
160	0xbd4b0929	-0.049569283
161	0x3ce71f7b	0.028213253
162	0x3c3c4e53	0.011493283
163	0xbdc853dd	-0.09781621
164	0xbd218651	-0.039434735
165	0xbd26a2be	-0.040682547
166	0x3a807f03	0.0009803477
167	0x3d851067	0.06497269
168	0xbd938460	-0.07202983
169	0xbd5c6aa9	-0.053812657
170	0xbd282953	-0.041055035
171	0xbd9d1d6b	-0.07671627
172	0x3aaaee04	0.0013040905
173	0x3ba3cc10	0.0049986914
174	0xb919fef1	-0.0001468619
175	0x3c836e4c	0.016043805
176	0x3dac8c74	0.08425227
177	0xbc3d7cb0	-0.011565372
178	0xbd8258f5	-0.063646235
179	0xbc480490	-0.012208119
180	0xbd4e7e1e	-0.050413243
181	0xb9780d05	-0.00023655973
182	0xbdb5505a	-0.088532165
183	0xbd918230	-0.071049094
184	0x3bd4d9ea	0.006495704
185	0xbd93eb77	-0.07222646
186	0x3bff7de7	0.007796991
187	0x3cbd1776	0.023082476
188	0xbda557fa	-0.08073421
189	0x3c845236	0.016152482
190	0xbd39137a	-0.04518459
191	0xbd90e83a	-0.07075544
192	0xbcccc778	-0.024997458
193	0x3d1caaae	0.03824871
194	0x3d297398	0.041370004
195	0x3dc2d2f2	0.09512891
196	0xbd345853	-0.044029545
197	0xbcd6ddce	-0.026228812
198	0x3c3309cd	0.01092763
199	0x3da6793d	0.08128593
200	0x3d8464f0	0.06464565
201	0xbc2cef69	-0.010555127
202	0xbdaa3ad3	-0.08312001
203	0xbd97a670	-0.07404792
204	0x3d3e7936	0.046502315
205	0x3d55b47b	0.052174073
206	0x3d13929f	0.0360285
207	0x3cdbbdee	0.026823964
208	0xbb78e65d	-0.0037979104
209	0x3c992317	0.01869349
210	0x3ceaeaf1	0.028676482
211	0x3d5c3b49	0.053767476
212	0x3d4c11e6	0.049821757
213	0xbd7eeaa8	-0.062235504
214	0xbd8f8de8	-0.07009488
215	0xbd9fe9f7	-0.07808297
216	0x3c48013c	0.012207326
217	0x3db99c1a	0.09062977
218	0x3c25ef6f	0.010127886
219	0x3cb08264	0.02154655
220	0xbd234a2e	-0.039865665
221	0xbd533c39	-0.051571105
222	0x3d727c73	0.059200715
223	0x3ccdbca0	0.025114357
224	0xba02317e	-0.00049664814
225	0xbd14a1c9	-0.036287103
226	0x3c708bf7	0.014681808
227	0x3c27c758	0.010240398
228	0xbd7969dc	-0.06089197
229	0x3cd40ecd	0.025885964
230	0xbda19891	-0.07890428
231	0x3d775ef1	0.060393278
232	0x3d5bd760	0.053672194
233	0xbc5b08ca	-0.013368795
234	0x3d4a216c	0.04934828
235	0xbcb5f4c1	-0.022211434
236	0xbd14afbe	-0.036300413
237	0x3ccebcd2	0.02523652
238	0x3d902dbb	0.070399724
239	0xbd9dde73	-0.077084444
240	0x3ca40c57	0.020025415
241	0xbd5d2653	-0.053991627
242	0xbc1d8d47	-0.009616203
243	0xbc7c25cf	-0.015389874
244	0x3d68718e	0.05674892
245	0x3b06d279	0.0020572229
246	0x3d7fb34c	0.06242685
247	0x39a3f218	0.00031270157
248	0xbdaa1d21	-0.08306337
249	0xbc2758f6	-0.010214081
250	0xbd04078c	-0.03223376
251	0xbd6d3bc7	-0.057918336
252	0xbd1fb90a	-0.038994826
253	0x3cad7a19	0.021176385
254	0xbdbe2b52	-0.092856064
255	0xbd11184a	-0.035423554

encoder.module_4.lin_rel.bias f4 [128]
0	0xbb3bc6eb	-0.00286525
1	0xbd8b3ed6	-0.067990944
2	0x3d3c0336	0.0459015
3	0xbd9d1d9f	-0.076716654
4	0x3d8f01f3	0.06982794
5	0x3cebac5e	0.028768715
6	0x3d458765	0.048224825
7	0xbd102646	-0.03519275
8	0x3da9aa71	0.08284462
9	0x3da0e550	0.07856238
10	0xbd91bde0	-0.07116294
11	0x3d7eb4fc	0.06218432
12	0xbd5ba4c9	-0.05362395
13	0x3d1a751d	0.037709344
14	0xbd2a0df8	-0.041517228
15	0xbc3dbdaf	-0.011580869
16	0x3d9eb1c9	0.077487536
17	0x3bbdee0c	0.0057961997
18	0xbbcd756f	-0.0062701027
19	0xbcfee6b7	-0.031115873
20	0xbda37016	-0.07980363
21	0xbd3fca51	-0.046823803
22	0x3cea94a2	0.028635327
23	0x3d0f22d5	0.034945328
24	0xbd1f0b7b	-0.038829308
25	0x3c238159	0.009979569
26	0x3da12fa1	0.078704126
27	0xbdb01165	-0.08597068
28	0xbdae12ee	-0.08499704
29	0x3c87a6d8	0.01655905
30	0xbc85b938	-0.01632367
31	0xbdaaf4e3	-0.0834749
32	0xbd34ea25	-0.04416861
33	0x3d744025	0.059631485
34	0xbd6468f7	-0.055764165
35	0x3dafbb0a	0.08580597
36	0x3d84a6de	0.0647714
37	0x3c5907c5	0.013246481
38	0xbd59709b	-0.053085905
39	0x3dae5cee	0.08513819
40	0x3d68a5d8	0.056798786
41	0x3cd8842f	0.026430218
42	0xbc137a20	-0.009001285
43	0x3d918e4a	0.071072176
44	0x3d983e7e	0.074337944
45	0xbd5bf9b6	-0.05370494
46	0xbc807b93	-0.015683925
47	0x3c5dbd4a	0.0135339
48	0xbd736398	-0.059421152
49	0xbdaef5bb	-0.08542963
50	0xbd631497	-0.055439558
51	0xbd80feba	-0.06298585
52	0x39a57a47	0.00031562356
53	0xbd654189	-0.055970702
54	0xbdaa9ca9	-0.08330662
55	0x3dab425a	0.08362265
56	0x3b940bb5	0.004517997
57	0xbda8657e	-0.08222483
58	0xbd8450eb	-0.064607464
59	0x3bb2f8b7	0.005461778
60	0x3c4196e1	0.0118157575
61	0x3db898e2	0.09013535
62	0x3d9a229b	0.07526132
63	0xbd5fa0c1	-0.054596666
64	0x3da5b15e	0.08090471
65	0x3dab0820	0.08351159
66	0x3c615bce	0.013754798
67	0xbc360e7b	-0.011111851
68	0x3d2d83a5	0.042361874
69	0x3c7aae94	0.015300412
70	0x3d84c4f3	0.064828776
71	0xbd4d67a0	-0.050147653
72	0xbcdc3dda	-0.026884962
73	0xbda98c58	-0.082787216
74	0x3d945ab6	0.07243864
75	0x3ca27033	0.019828891
76	0xbd48a545	-0.04898574
77	0xbd51de1a	-0.051237203
78	0x3d18fc14	0.037349775
79	0xbcffd6d9	-0.031230377
80	0xbc61f452	-0.013791161
81	0x3d5e6919	0.054299448
82	0x3ce5fcc4	0.02807463
83	0x3d84acb4	0.06478253
84	0xbba3570f	-0.0049847434
85	0xbd1e3718	-0.03862676
86	0x3d5d16ee	0.053976946
87	0xbc3e1063	-0.011600587
88	0x3d805ccb	0.06267699
89	0x3ccf1b79	0.025281655
90	0x3c626403	0.01381779
91	0xbc5f9f65	-0.013648842
92	0xbc0020b5	-0.007820298
93	0x3d9bd617	0.07609194
94	0x3d893635	0.06699792
95	0x3d9b14c7	0.07572322
96	0xbd4c3cf7	-0.049862828
97	0xbdb330d0	-0.087495446
98	0x3be4cbda	0.006982309
99	0x3d7d74a3	0.06187881
100	0x3dab32fd	0.083593346
101	0xbd8f3b06	-0.0699368
102	0x3d4bb822	0.04973615
103	0x3d3cc1ac	0.046083137
104	0xbd8e6db0	-0.06954515
105	0x3d3b7989	0.0457702
106	0xbce80fbf	-0.02832782
107	0xbc483b38	-0.01222115
108	0x3c731b78	0.014838092
109	0x3d30c468	0.043156058
110	0x3bab517e	0.0052282205
111	0xbd9ab7ac	-0.07554564
112	0xbd85fa64	-0.06541899
113	0xbdabd7ab	-0.08390745
114	0xbd8871c2	-0.066623226
115	0x3b1b6201	0.0023709538
116	0x3b954503	0.004555346
117	0x3cf8af7c	0.030357115
118	0x3d1241d6	0.035707317
119	0x3d015fb2	0.031585403
120	0x3daa0760	0.08302188
121	0xbd92dcd5	-0.071710266
122	0xbce21731	-0.02759895
123	0xbd7b042c	-0.061283275
124	0x3d94e5f0	0.072704196
125	0xbd16918d	-0.0367599
126	0x3d8e77b6	0.06956427
127	0x3d3031a7	0.043016102

encoder.module_4.lin_root.weight f4 [128, 128]
0	0x3d4a184a	0.04933957
1	0xbd6617dd	-0.0561751
2	0xbbe61a82	-0.007022203
3	0xbd17c418	-0.037052244
4	0xbd759fe1	-0.059966926
5	0xbdab3cd0	-0.083612084
6	0xbcd6d56d	-0.026224816
7	0x3ca7c917	0.02048163
8	0xbd9c795b	-0.07640334
9	0xbd43e9e7	-0.04783049
10	0xbd81748c	-0.06321058
11	0xbd962fd4	-0.07333341
12	0x3cfcc72a	0.030856688
13	0xbbd6b9c3	-0.0065529062
14	0xbccd5db8	-0.025069103
15	0xbd2fc7ca	-0.042915143
16	0x3c441c77	0.011969677
17	0x3dad6c5c	0.084679335
18	0x3bf4d48a	0.0074716257
19	0x3ccc9b26	0.024976324
20	0x3d921294	0.0713245
21	0xbd2bed94	-0.04197462
22	0xbd26ddb2	-0.04073877
23	0x39acbcac	0.00032946968
24	0x3bf2e2f7	0.00741231
25	0xbc070aab	-0.00824229
26	0xbd33e1da	-0.04391656
27	0x3cc54b92	0.024083886
28	0x3cafd37a	0.021463145
29	0xbda8dd8d	-0.082453825
30	0x3d1c40cf	0.038147744
31	0xbd4588c3	-0.04822613
32	0xbc7751e1	-0.015095205
33	0x3da0ba2e	0.07848011
34	0xbd5a2be4	-0.053264514
35	0x3da14571	0.07874573
36	0x3cb810a1	0.022468867
37	0xbd5ef420	-0.054432034
38	0xbd8f21d3	-0.06988873
39	0xbacd0f41	-0.0015644805
40	0x3cb0af3b	0.021567931
41	0x3daaf523	0.08347537
42	0x3c4566d5	0.012048443
43	0x3cee04b5	0.029054979
44	0xbdc4dff6	-0.0961303
45	0xbdaed76d	-0.08537183
46	0xbcc234a6	-0.023706745
47	0x3c94684c	0.018116139
48	0x3d243dac	0.040097877
49	0x3db4e165	0.08832053
50	0xbcd4136d	-0.02588817
51	0xbd1e6419	-0.03866968
52	0x3c26d801	0.010183335
53	0xbd349154	-0.04408391
54	0x3d8304e8	0.0639742
55	0xbd8155d2	-0.06315197
56	0x3c868edd	0.016425544
57	0x3d85635d	0.06513093
58	0xbd44b05e	-0.04801976
59	0xbd81aa42	-0.06331302
60	0xbd1a8ed3	-0.037733864
61	0x3c420976	0.011843076
62	0xbda167ba	-0.078811124
63	0xbda9f8a3	-0.08299377
64	0x3d06a0b2	0.032868095
65	0x3b9bf8a5	0.0047598653
66	0xbd0e39d4	-0.034723118
67	0x3ca07ec6	0.0195917
68	0x3ce54f21	0.027991833
69	0x3cfd3d9d	0.030913169
70	0x3d1cbb4b	0.038264554
71	0xbd2ef003	-0.04270936
72	0xbd8908ee	-0.06691156
73	0xbd45ddd7	-0.048307266
74	0xbd546587	-0.051854637
75	0xbc4fd409	-0.01268483
76	0xbd19282b	-0.037391823
77	0xbc193b73	-0.009352553
78	0x3d1a4925	0.037667412
79	0xbd131d1a	-0.035916425
80	0xbd4866c2	-0.048926122
81	0xbd69e0bc	-0.05709909
82	0xbcba84d7	-0.022768421
83	0x3db24b8b	0.08705815
84	0xbd2d175c	-0.042258605
85	0x3d7adb62	0.061244376
86	0x3cfb5ba5	0.030683348
87	0xbd8171f7	-0.06320565
88	0xbdab5c96	-0.08367269
89	0x3d59ed6b	0.053204935
90	0x3d9072d4	0.07053152
91	0x3dbf34c1	0.09336234
92	0x3dc2feb0	0.09521234
93	0xbdb2d6a7	-0.08732348
94	0xbcc04810	-0.023471862
95	0xbc6de00e	-0.014518751
96	0xbc8bf000	-0.017082214
97	0x3d0590ba	0.032608725
98	0xbd9272b7	-0.07150786
99	0x3d3a5344	0.045489565
100	0xbd51242a	-0.05105988
101	0x3d097d03	0.033566486
102	0x3dd53ece	0.1041237
103	0xbc2ff4bf	-0.010739504
104	0xbd51ea61	-0.05124891
105	0x3d0c5d86	0.03426888
106	0x3d7fcedf	0.062453147
107	0x3cab2dd6	0.02089588
108	0xbd8b37a8	-0.06797725
109	0x3cef8022	0.029235903
110	0xbd802f09	-0.06258971
111	0xbdaaaf4e	-0.08334218
112	0x3d9b127d	0.07571886
113	0x3d39d4fb	0.04536913
114	0xbd122c00	-0.035686493
115	0xbd0fe3a6	-0.03512921
116	0x3caaee2f	0.020865528
117	0xbb1af031	-0.00236417
118	0xbd7d020c	-0.06176953
119	0xbda714ef	-0.0815829
120	0x3d16495a	0.036691047
121	0x3db382b9	0.08765168
122	0xbdadba9a	-0.08482857
123	0xbd715e87	-0.05892804
124	0xbc84118e	-0.016121652
125	0x3d8298b9	0.06376786
126	0xbd8f9790	-0.0701133
127	0x3c9c5f1f	0.019088326
128	0x3d321211	0.04347426
129	0xbc8d933d	-0.017282123
130	0xbd3f0e77	-0.046644654
131	0x3c6a4f52	0.014301138
132	0xbd87f54a	-0.06638582
133	0xbca5f4c6	-0.020258319
134	0x3d8446ab	0.06458791
135	0x3d38106e	0.044937544
136	0x3d744780	0.0596385
137	0xbd21c2be	-0.03949236
138	0x3c4a28e5	0.012338852
139	0xbb721db6	-0.0036943979
140	0xbd48b90e	-0.049004607
141	0xbdbde100	-0.09271431
142	0x3cc09e89	0.023513095
143	0xbcdadcab	-0.02671655
144	0x3dc250f4	0.09488097
145	0xbd5ee101	-0.0544138
146	0x3d0793f3	0.03310008
147	0xbdb6c965	-0.08925132
148	0xbd4c1bb5	-0.04983111
149	0x39479369	0.00019033033
150	0xbda6167c	-0.08109757
151	0xbdb032f4	-0.086034685
152	0xbd662f6d	-0.056197572
153	0x3cae8dda	0.021307874
154	0x3c3dfdab	0.011596124
155	0xbd724c3f	-0.059154745
156	0x3d8ca2ec	0.068670124
157	0x3d21c288	0.03949216
158	0xbbd19ec1	-0.006397099
159	0xbd483317	-0.048876848
160	0x3c8a8aec	0.016911946
161	0xbc44e1ef	-0.012016757
162	0xbd9e9e74	-0.07745066
163	0x3ca6ef15	0.020377675
164	0xbd4fa085	-0.050690193
165	0xbd0bdc4f	-0.03414565
166	0xbd119f64	-0.035552397
167	0x3cfda029	0.03096016
168	0x3d9584ff	0.073007576
169	0x3dc867c1	0.097854145
170	0x3cf4c8eb	0.029880961
171	0xbd873715	-0.06602303
172	0x3d8d07db	0.06886264
173	0x3bf699ba	0.00752565
174	0xbd68a1a7	-0.05679479
175	0x3c0d9008	0.008640297
176	0xbd64d25e	-0.055864684
177	0xbdd8e368	-0.10590249
178	0xbbc8b1f4	-0.0061247293
179	0xbdc73078	-0.097260416
180	0xbd738438	-0.059452266
181	0x3dc31401	0.095253
182	0x3bb62462	0.0055585364
183	0xbdc57747	-0.09641891
184	0x3dcdd78e	0.100508794
185	0x3c6a9e53	0.014319974
186	0x3d047486	0.032337688
187	0xbd4c2e87	-0.04984906
188	0x3d35e30e	0.04440599
189	0x3d0805a7	0.033208515
190	0xbd1f360f	-0.038869914
191	0xbdc658d6	-0.09684913
192	0x3ca2c032	0.019867036
193	0x3b3a6b0d	0.0028445155
194	0x3d9d9821	0.07695032
195	0xbda7485b	-0.081680976
196	0xbd898816	-0.067154095
197	0xbd0f6a71	-0.03501362
198	0xbd358f0f	-0.044325884
199	0x3d2559f8	0.040369004
200	0x3d49279a	0.049110033
201	0x3c5b4dfb	0.013385291
202	0xbc316c0b	-0.010828982
203	0x3da5b808	0.08091742
204	0xbc807e0b	-0.015685102
205	0xbd09eb72	-0.033671804
206	0x3c955b0d	0.018231893
207	0xbc827eee	-0.015929665
208	0xbd0783a0	-0.03308451
209	0x3cd01fea	0.025405843
210	0xbd57bb39	-0.052668784
211	0x3cd135cb	0.025538346
212	0xbcf675f1	-0.030085536
213	0x3d585488	0.05281499
214	0xbd6e5e72	-0.05819554
215	0xbc9c113b	-0.019051185
216	0xbda45e68	-0.08025819
217	0xbd872416	-0.0659868
218	0x3d191a6c	0.037378713
219	0x3be47d89	0.006972973
220	0xbd9362af	-0.07196557
221	0xbddcc021	-0.10778833
222	0xbd0248a1	-0.031807546
223	0xbc394ad1	-0.0113093415
224	0xbcc606e4	-0.024173208
225	0x3d507e91	0.050901953
226	0x3d7a8723	0.061164033
227	0xbd812d01	-0.06307412
228	0xbbeb3975	-0.0071784803
229	0xbd03da04	-0.032190338
230	0xbcdb3af3	-0.026761508
231	0xbd704875	-0.05866285
232	0x3d927488	0.07151133
233	0xbdb115d1	-0.08646739
234	0x3d170950	0.036874115
235	0xbac66260	-0.0015135519
236	0xbdb41dd8	-0.08794755
237	0x3b861d01	0.004092813
238	0x3d97bdd2	0.07409252
239	0xbd9d000c	-0.076660246
240	0x3d0bdf29	0.03414837
241	0x3d42f735	0.047599036
242	0xbcef6dc2	-0.029227141
243	0xbc89ab91	-0.016805442
244	0x3d4327a5	0.04764523
245	0x3d1213b7	0.035663333
246	0x3d894139	0.06701893
247	0xbc14d412	-0.009083765
248	0x3c05fa08	0.008177288
249	0x3cc0468b	0.023471138
250	0xbd4c03fe	-0.049808495
251	0x3d83ff93	0.06445231
252	0xbcf36386	-0.029710542
253	0xbd800d72	-0.062525645
254	0x3d709317	0.058734026
255	0xbd61e9cd	-0.05515461

encoder.module_5.weight f4 [128]
0	0x3f81fe2b	1.0155691
1	0x3f7c31df	0.985136
2	0x3f82eabb	1.0227884
3	0x3f804914	1.0022302
4	0x3f8573e4	1.0425992
5	0x3f814c6e	1.010145
6	0x3f809f6d	1.0048653
7	0x3f83211e	1.0244482
8	0x3f80f71d	1.0075413
9	0x3f83418b	1.0254377
10	0x3f7a6eae	0.97825134
11	0x3f79a5a4	0.9751837
12	0x3f822798	1.0168333
13	0x3f84e623	1.0382732
14	0x3f7de4dc	0.99177337
15	0x3f801104	1.0005193
16	0x3f7a6d55	0.9782308
17	0x3f82d4e9	1.0221225
18	0x3f8000c1	1.000023
19	0x3f7c3910	0.9852457
20	0x3f7b0591	0.9805537
21	0x3f826335	1.0186526
22	0x3f8129f7	1.0090932
23	0x3f7d3b43	0.9891855
24	0x3f7a5256	0.97781885
25	0x3f7f0fc5	0.9963344
26	0x3f74f477	0.95685524
27	0x3f812634	1.0089784
28	0x3f7f2324	0.99662995
29	0x3f7e5f91	0.9936457
30	0x3f83e4c9	1.0304195
31	0x3f8032d3	1.001551
32	0x3f8059cb	1.0027403
33	0x3f7d8f55	0.9904683
34	0x3f7a4ba7	0.97771686
35	0x3f81fe8b	1.0155805
36	0x3f80df50	1.006815
37	0x3f8124a1	1.0089303
38	0x3f7edaf5	0.9955285
39	0x3f7ce6ec	0.9878986
40	0x3f7ffae2	0.9999219
41	0x3f731778	0.94957685
42	0x3f80c225	1.0059248
43	0x3f81c097	1.0136899
44	0x3f81dd94	1.0145745
45	0x3f7cf292	0.9880763
46	0x3f7f3f0c	0.99705577
47	0x3f7a56fe	0.9778899
48	0x3f7b0852	0.9805957
49	0x3f826027	1.0185593
50	0x3f825608	1.0182505
51	0x3f7e51c3	0.9934351
52	0x3f7a067f	0.9766616
53	0x3f75eb68	0.96062326
54	0x3f883976	1.0642536
55	0x3f7c43ab	0.98540753
56	0x3f7fc986	0.99916875
57	0x3f7d8e95	0.9904569
58	0x3f840fa7	1.0317277
59	0x3f831afa	1.0242608
60	0x3f80ba8e	1.0056932
61	0x3f813345	1.0093771
62	0x3f7c8ec4	0.98655343
63	0x3f84f88b	1.0388349
64	0x3f7dfda6	0.9921516
65	0x3f7d3a7d	0.9891737
66	0x3f7dc7c5	0.9913295
67	0x3f82a570	1.0206738
68	0x3f816055	1.0107523
69	0x3f83f704	1.0309758
70	0x3f819892	1.0124686
71	0x3f8073e3	1.0035366
72	0x3f7d2171	0.9887915
73	0x3f7b3ad8	0.98136663
74	0x3f811c59	1.0086776
75	0x3f7ba3a8	0.98296595
76	0x3f77e582	0.96834576
77	0x3f7649f9	0.96206623
78	0x3f7bf2db	0.98417443
79	0x3f8adac8	1.0848017
80	0x3f80304d	1.001474
81	0x3f7fbb79	0.99895436
82	0x3f805846	1.0026939
83	0x3f7aadba	0.97921336
84	0x3f7c865f	0.98642534
85	0x3f7bbf9c	0.9833925
86	0x3f84fe52	1.0390112
87	0x3f79c6cc	0.97568965
88	0x3f7c601d	0.9858416
89	0x3f713ddd	0.9423502
90	0x3f813b88	1.0096292
91	0x3f7a829d	0.9785555
92	0x3f81d8be	1.014427
93	0x3f80fd74	1.0077348
94	0x3f7ab720	0.97935677
95	0x3f8039f0	1.0017681
96	0x3f801022	1.0004923
97	0x3f808343	1.0040058
98	0x3f81758f	1.0114001
99	0x3f80b37a	1.0054772
100	0x3f84b105	1.0366522
101	0x3f7e8aed	0.99430734
102	0x3f7adaed	0.97990304
103	0x3f81098a	1.0081036
104	0x3f801fd9	1.0009719
105	0x3f82027b	1.0157007
106	0x3f80f6f8	1.0075369
107	0x3f84f298	1.0386534
108	0x3f7a47bb	0.977657
109	0x3f8041f7	1.0020131
110	0x3f81181c	1.0085483
111	0x3f809d9f	1.0048102
112	0x3f7a61b7	0.9780535
113	0x3f7fd201	0.99929816
114	0x3f7f9c68	0.9984803
115	0x3f7af67c	0.98032355
116	0x3f7bd478	0.98371077
117	0x3f7a082c	0.9766872
118	0x3f7dd3e7	0.9915146
119	0x3f87d326	1.0611312
120	0x3f8095e4	1.0045743
121	0x3f8943ac	1.0723777
122	0x3f85cf08	1.0453806
123	0x3f83bd52	1.0292151
124	0x3f7d6624	0.9898398
125	0x3f7982b6	0.97465074
126	0x3f82d681	1.0221711
127	0x3f77ee52	0.9684802
